motion_recognition_android/app/src/main/assets/motion_model.tflite (tflite, 948288 bytes, 36 tensors)

arith.constant1 f4 [1, 128]
000000 c5 d7 90 3d 42 6d 9d bc 05 72 4e bd 6b ab fb 3c
       0.07072405 -0.019217137 -0.050401706 0.030721387
000010 84 37 5f 3d 6a 17 ca 3c e3 68 24 bc 86 6b 1f bc
       0.054496303 0.024669368 -0.010034773 -0.009730225
000020 66 d5 99 3b 54 72 c6 bb 6b 4c 05 bb a2 4e 42 bc
       0.0046946285 -0.0060561094 -0.0020339738 -0.011859568
000030 9b 24 d1 bb d4 c7 4b bd ed bd 04 3d 66 ed b9 3c
       -0.0063825375 -0.049751118 0.03240769 0.022696208
000040 5d 4c af 3c fc 3f e7 3c 94 dd a3 3b 91 f7 eb bb
       0.021398718 0.028228752 0.0050007794 -0.007201143
000050 2a 24 24 bc cd 18 4d bb 90 92 aa 3b b9 7a 97 bb
       -0.010018388 -0.00312953 0.00520546 -0.004622784
000060 0e a0 34 3d 10 15 a6 3c fd 51 0e bd 4f de 33 3d
       0.044097953 0.020273715 -0.03474616 0.043913182
000070 ef c0 99 bc 39 dc 40 3c 5b ee 43 3d 37 6e d3 3c
       -0.018768756 0.011771255 0.047834735 0.02580939
000080 a9 3c 28 bd bd a1 b7 3c 01 7b 2a bc 64 75 36 bd
       -0.041073475 0.02241599 -0.010405303 -0.044545546
000090 47 99 8f bc 7c ed 26 bc e8 9f e0 bc f8 c1 8a 3c
       -0.017529143 -0.010188457 -0.02742 0.016938195
0000a0 79 aa 14 3d d9 b5 61 bc a9 bc 0e 3a 54 a1 ea 3b
       0.036295388 -0.013776266 0.00054449827 0.007160345
0000b0 8c 72 8b 3c 2a 53 57 3d e2 ae 2c bd 52 0c c1 3c
       0.017022394 0.052569546 -0.04215897 0.023565445
0000c0 9f ea e8 3c d3 ae 33 3d 64 43 69 3c 21 e0 dc bc
       0.028432189 0.043867897 0.014237259 -0.026962342
0000d0 e9 d5 1b 3d d5 9b d9 3c d9 eb 2b 3c 80 58 89 3c
       0.038045797 0.026563564 0.010493242 0.016765833
0000e0 87 98 2a b8 c0 65 7d bc c2 85 39 bc fc 3e 02 bd
       -4.067321e-05 -0.015466154 -0.011323394 -0.031798348
0000f0 2f 0f 5d bc 93 13 84 bc c2 b1 19 bb e3 28 b0 3c
       -0.01349239 -0.016122615 -0.00234519 0.021503871
000100 ea 2d 57 3d 2d 39 9e 3b e8 9e 28 3d 3d bd ac 3d
       0.05253402 0.004828593 0.04116717 0.08434532
000110 37 16 0d 3c 36 b5 12 3d 0c 2a 66 3c 01 d2 70 bd
       0.008611253 0.035817347 0.014048111 -0.058794025
000120 f4 97 65 3d 68 74 59 bd 57 1e c8 3b 35 81 56 3c
       0.056053117 -0.05308953 0.0061071324 0.013092329
000130 87 f6 9e bc 44 e0 4c 3d 3f ff 7c bc 04 3d 6a bd
       -0.019404663 0.050018564 -0.015441715 -0.057187095
000140 a8 70 b5 bc 5e c2 4a 3b ae 31 0e 3c 5c ba 95 3b
       -0.022148445 0.0030938606 0.008678837 0.004569335
000150 4d 38 92 bc 9d 0a e2 3c 14 7a 05 bd 0a d3 ee 3c
       -0.017849112 0.027592951 -0.032587126 0.029153366
000160 9f 03 0e 3b c3 03 a2 bb ef ef 41 3c 3e 8e 2f 3d
       0.0021669639 -0.004944296 0.01183699 0.042860262
000170 b7 98 c1 3a 40 ff e1 3b 0c 38 8e bb 47 74 97 bc
       0.0014770244 0.0068968832 -0.0043401774 -0.018488063
000180 54 ae 32 3d 8c df 1d bd da 74 b3 bc 71 2f d8 3c
       0.043623284 -0.03854327 -0.021906305 0.02638981
000190 56 fa 33 3c f6 d5 1f bd ee cc 02 bb 36 cb 39 bd
       0.010984978 -0.03902241 -0.0019958573 -0.045359813
0001a0 d6 75 b7 bc 74 78 7b bb a3 f7 51 3c 96 d3 37 3b
       -0.022395056 -0.0038371356 0.012815389 0.00280497
0001b0 81 b6 7b 3d a8 f2 5f bc 61 91 25 3d be 27 94 3c
       0.061453346 -0.013668694 0.040421847 0.018085357
0001c0 b5 f0 f2 bc 06 ae 4c 3d 5d 85 da 3c 9b ab 9a 3c
       -0.029655794 0.04997065 0.02667492 0.018880656
0001d0 fe eb e7 38 8f c2 9c 3b ab b9 26 bc 56 ce 88 bd
       0.00011058895 0.0047839354 -0.010176103 -0.066799805
0001e0 fa 0a 85 bc bf f8 1f 3b 14 13 13 bc f1 fb fb bc
       -0.016240586 0.0024409739 -0.008976717 -0.030759783
0001f0 c8 aa 44 3d b8 d3 b1 3d c0 2a 4e 3d d5 ee 06 3d
       0.048014432 0.0868296 0.05033374 0.03294261

arith.constant2 f4 [1, 128]
000000 b6 c2 82 3f d8 19 77 3f 50 fe 75 3f c2 31 76 3f
       1.0215671 0.9652381 0.96091175 0.96169674
000010 ab 7e 79 3f a4 b1 77 3f 92 7d 68 3f 68 4d 70 3f
       0.97458905 0.96755433 0.90816605 0.9386811
000020 a0 5e 6d 3f ca 87 7d 3f 38 88 80 3f a3 9a 7c 3f
       0.9272251 0.9903532 1.0041571 0.98673457
000030 2b ef 77 3f 75 90 6e 3f a0 59 70 3f 2a da 6d 3f
       0.96849316 0.93189174 0.93886757 0.92911017
000040 bf dc 80 3f ff 24 7c 3f dd 9a 67 3f 72 cb 6f 3f
       1.0067366 0.9849395 0.9047068 0.9366981
000050 38 ff 69 3f 3f db 7f 3f 90 66 70 3f 9e b0 6d 3f
       0.9140506 0.9994392 0.939065 0.9284762
000060 a2 e4 77 3f 43 db 73 3f 1d ba 82 3f 47 90 76 3f
       0.9683324 0.9525644 1.0213047 0.963139
000070 b0 cf 73 3f 80 82 72 3f 34 88 6c 3f c0 a3 79 3f
       0.9523878 0.9473038 0.9239533 0.9751549
000080 0d a9 74 3f b6 32 74 3f d5 9d 6e 3f 51 62 73 3f
       0.9557045 0.9538988 0.9320958 0.95071894
000090 11 9c 72 3f 52 e8 6c 3f 02 23 78 3f cd a9 7e 3f
       0.9476939 0.9254199 0.9692842 0.99477845
0000a0 e1 58 79 3f 08 0f 78 3f fa 12 7e 3f 38 58 78 3f
       0.97401243 0.96897936 0.99247706 0.9700961
0000b0 6c c9 75 3f 8a 89 72 3f 77 13 73 3f fc f4 74 3f
       0.9601047 0.9474112 0.94951576 0.95686316
0000c0 09 5f 72 3f 35 16 7c 3f c8 5e 79 3f a6 46 74 3f
       0.9467626 0.98471385 0.9741025 0.954203
0000d0 81 78 72 3f 17 e2 76 3f 6a c2 7a 3f 0e 7b 71 3f
       0.94715124 0.96438736 0.979529 0.9432839
0000e0 f3 62 86 3f 39 34 71 3f 6b 06 75 3f ec 2b 77 3f
       1.0498947 0.9422031 0.9571292 0.96551394
0000f0 ce 64 76 3f 2d 52 65 3f c6 f9 77 3f ab b5 7a 3f
       0.96247566 0.89578515 0.968655 0.97933453
000100 29 51 66 3f c4 18 71 3f 2c 83 67 3f 42 b6 85 3f
       0.8996759 0.94178414 0.9043453 1.0446246
000110 7f 51 73 3f 89 aa 74 3f 03 de 72 3f 6d 63 74 3f
       0.9504623 0.95572716 0.94870013 0.9546421
000120 32 fb 80 3f 13 2f 74 3f e8 b3 72 3f 5b 68 79 3f
       1.0076659 0.9538433 0.94805765 0.9742486
000130 2d 74 6e 3f a8 1e 71 3f 1c e0 81 3f 9d 17 70 3f
       0.9314602 0.941874 1.0146518 0.9378603
000140 ee 8e 7d 3f bd 24 70 3f 8d c2 78 3f 0f a2 7b 3f
       0.9904622 0.9380606 0.9717186 0.98294157
000150 49 a6 7a 3f b6 11 6f 3f 08 90 69 3f 73 bb 73 3f
       0.9790998 0.933864 0.912354 0.952079
000160 22 5a 6d 3f 83 19 79 3f 23 ec 78 3f 9a 75 6a 3f
       0.92715657 0.9730455 0.97235316 0.91585696
000170 79 1f 68 3f b0 51 7e 3f 0d 0c 71 3f ae 1d 6a 3f
       0.90673023 0.99343395 0.94159013 0.9145154
000180 b3 e4 73 3f 83 2e 7a 3f df 14 7f 3f 0c 4f 74 3f
       0.9527084 0.9772722 0.9964122 0.95433116
000190 94 f0 6d 3f 07 c5 81 3f 52 f4 81 3f 23 db 70 3f
       0.9294522 1.0138253 1.0152686 0.94084376
0001a0 27 ba 7e 3f ee 33 73 3f 96 c7 71 3f 7e 50 78 3f
       0.99502796 0.95001113 0.9444517 0.9699782
0001b0 73 d9 67 3f 4e dd 74 3f fe 03 75 3f b2 34 6c 3f
       0.90566176 0.95650184 0.95709217 0.92267907
0001c0 91 aa 71 3f 02 72 65 3f e4 3d 67 3f dd 38 78 3f
       0.9440089 0.8962709 0.9032881 0.96961766
0001d0 95 29 78 3f 74 c0 74 3f 13 a8 7b 3f 79 7e 74 3f
       0.9693845 0.9560616 0.98303336 0.9550548
0001e0 ef f4 7c 3f f3 62 75 3f e2 57 7a 3f 48 a9 79 3f
       0.9881124 0.9585411 0.9779035 0.9752393
0001f0 da de 70 3f 51 eb 67 3f f1 9c 78 3f 3c 5b 6e 3f
       0.94090044 0.9059344 0.97114474 0.9310796

arith.constant3 f4 [1, 128]
000000 1f 34 91 3c 86 5f 6c bc b5 fc ad 3c 19 14 cf ba
       0.017725049 -0.014427071 0.021238664 -0.0015798836
000010 c6 4f 48 3b 83 01 3e 3c 38 92 00 bd 78 a5 4b 3c
       0.0030565127 0.01159704 -0.031389445 0.012429588
000020 75 4d 4b bc d9 75 80 bd 44 ed 2e bc 39 4a 77 3d
       -0.012408604 -0.06272478 -0.010676686 0.06037352
000030 80 d4 a3 3c 12 8c 5c 3d c1 be a2 bc aa ff 29 3c
       0.019998789 0.05384452 -0.01986635 0.0103758965
000040 90 67 e4 bb ce cd 4d 3b cb 81 00 bd 9d 5d 14 3b
       -0.0069703534 0.0031403187 -0.03137378 0.0022638806
000050 57 51 21 3b e0 15 4b 3d 4a 87 6e 3b fa dd 2f bd
       0.0024615133 0.04958141 0.0036396557 -0.042936303
000060 58 7d 4f bc 22 ae 33 3c 64 9b 05 bb 53 a1 9d bc
       -0.012664162 0.0109668095 -0.002038681 -0.019241964
000070 92 ad d7 bb f3 bd 2a 3d 78 c2 12 bc 98 a8 b0 3c
       -0.0065819705 0.041685056 -0.008957498 0.021564767
000080 ee 68 18 3d 6f ab bf 3a ca c4 f9 3b a6 8d 16 3d
       0.037209444 0.0014623235 0.007622336 0.03675618
000090 49 a4 46 bc d7 dd 4d 3c 02 13 85 3b 53 2d 96 bc
       -0.01212413 0.012565098 0.004061104 -0.01833216
0000a0 b7 cd 2d bd f7 9d ff ba f7 67 9d bc ca 40 bd bc
       -0.042432513 -0.0019502033 -0.019214613 -0.023102183
0000b0 fe 90 1e 3c 54 2a 30 3d e4 ca 92 bc 5c 61 47 3b
       0.0096781235 0.043009117 -0.017919011 0.003042302
0000c0 0d 9a 72 3d bc 47 91 3c 59 31 31 3c 9b 3e 8a bc
       0.059228946 0.0177344 0.010814988 -0.016875556
0000d0 8c e9 29 bd 3a 3e 9c 3b e6 eb 09 3d 26 93 4c 3c
       -0.041482493 0.00476816 0.033672236 0.012486255
0000e0 b1 60 8c 3c fa 3a 66 3c f5 34 05 bd d8 db d3 bc
       0.01713595 0.014052147 -0.032521207 -0.025861666
0000f0 4d ed 6a bc 9f fe 42 3d 56 9a 68 bc e7 ea 92 bc
       -0.0143388035 0.047606107 -0.014196953 -0.017934276
000100 82 0a c0 3c e0 45 6f bb e8 3a 03 3c 3a 2a 90 3c
       0.02344251 -0.0036510155 0.00800965 0.01759826
000110 47 76 18 bc 0e 2f ef bb 6b ff b1 3c 05 78 66 bc
       -0.009305543 -0.0072993105 0.021728238 -0.014066701
000120 77 47 14 3c 32 89 b0 3d 1a 93 f4 ba 8d 59 8e 3c
       0.009050242 0.08619918 -0.0018659562 0.017376686
000130 de 84 b7 3c 94 49 2a 3c 93 c3 88 3c 2c 63 29 3b
       0.022402223 0.010393519 0.01669482 0.0025846465
000140 eb d7 76 bc 37 6f 62 bd fa 65 30 bb 05 20 c9 bc
       -0.015066127 -0.055281844 -0.0026916252 -0.0245514
000150 10 a0 3b bc d0 77 1f bc 52 fe 0c bc fc 52 12 bd
       -0.011451736 -0.009733155 -0.008605557 -0.03572367
000160 c4 1a d0 bc 3f c3 c8 3c 3a a1 8b bb 58 08 8e 3a
       -0.025403388 0.024507163 -0.004261163 0.0010836227
000170 51 2d 4d 3c 68 86 a6 3a 0a 87 b8 bc 89 14 97 3c
       0.012523011 0.0012704851 -0.02252533 0.01844241
000180 fb d1 32 bd f0 75 3f 3d 1c 62 0f bd 6c f8 ba 3c
       -0.043657284 0.046743333 -0.035005674 0.022823535
000190 67 ab cc bc 1f 6f 1c bd 32 a2 de 3c 42 87 e8 3a
       -0.024984075 -0.03819191 0.02717695 0.0017740505
0001a0 11 46 9d bb 96 79 20 bd c8 43 35 3d 04 d3 df bc
       -0.0047996123 -0.039178453 0.044254094 -0.0273223
0001b0 43 66 99 bb 64 35 1b 3d 0c b9 b8 bb 76 8f 1b 3d
       -0.00468138 0.037892714 -0.0056372937 0.037978612
0001c0 ef e7 fa bc f7 6a 10 bd 98 d0 1d bd c1 af 9d 3c
       -0.030628173 -0.03525826 -0.03852901 0.019248845
0001d0 b6 13 d7 3b bf 52 0d bd 22 92 c1 bc 50 a2 bd bb
       0.006563629 -0.03450274 -0.023629252 -0.0057871714
0001e0 a7 26 7b bc 5c c0 c1 bc d6 77 18 bd d2 fb 48 bc
       -0.01532904 -0.023651294 -0.03722366 -0.01226707
0001f0 84 da dc 3c a2 a6 35 bc 97 8f 90 3c 85 8f 8e 3a
       0.026959665 -0.011087092 0.017646594 0.0010876512

arith.constant4 f4 [1, 128]
000000 bf 01 85 3f 69 fc 74 3f 5c 24 7e 3f 9d f2 7d 3f
       1.0391158 0.9569765 0.9927423 0.99198323
000010 13 50 78 3f 98 1f 7f 3f c9 d0 80 3f ac b3 80 3f
       0.96997184 0.99657583 1.0063716 1.0054832
000020 aa 88 87 3f 62 74 78 3f 4f 64 7c 3f 5d 4e 80 3f
       1.0588582 0.97052586 0.9859056 1.0023915
000030 60 92 82 3f 0d 4d 70 3f 1d 56 81 3f b9 a6 7c 3f
       1.020092 0.9386757 1.0104405 0.986919
000040 b9 d0 87 3f b2 48 84 3f b3 ad 80 3f e4 49 87 3f
       1.0610572 1.0334685 1.0053009 1.0569425
000050 25 b2 7c 3f 86 ab 75 3f 8d 09 7b 3f 01 f6 7d 3f
       0.98709327 0.9596485 0.9806145 0.992035
000060 4b 14 83 3f 7b 9a 7b 3f 18 76 7f 3f 76 f6 7c 3f
       1.0240568 0.98282593 0.9978957 0.9881357
000070 d5 b9 81 3f 76 fc 83 3f 75 51 7a 3f e0 49 80 3f
       1.0134836 1.031142 0.97780544 1.0022545
000080 86 47 83 3f 8f 3e 83 3f af 28 81 3f 86 b3 7d 3f
       1.0256202 1.0253466 1.0090541 0.99102056
000090 17 37 81 3f 42 b2 78 3f 48 2d 7a 3f 0d a3 82 3f
       1.0094937 0.97147 0.97725344 1.0206009
0000a0 0c 64 72 3f f7 31 82 3f b4 80 80 3f f5 18 85 3f
       0.9468391 1.0171498 1.0039277 1.0398241
0000b0 5f 70 74 3f d8 35 80 3f 0f 31 78 3f f0 ec 7e 3f
       0.95483965 1.0016432 0.9694986 0.9958029
0000c0 bf 79 86 3f 18 02 7c 3f d3 f8 75 3f 51 ea 7a 3f
       1.0505904 0.98440695 0.960828 0.9801379
0000d0 80 2a 7f 3f 6f 31 79 3f 1b 80 7b 3f 86 1a 7f 3f
       0.99674225 0.97341055 0.9824235 0.99649847
0000e0 7f 0e 75 3f 0e c3 7d 3f de 56 82 3f 66 f6 82 3f
       0.95725244 0.99125755 1.018276 1.0231445
0000f0 68 72 82 3f b1 b1 82 3f 18 87 89 3f c3 a1 7f 3f
       1.0191164 1.0210477 1.0744352 0.99856204
000100 aa 8f 84 3f ff eb 7c 3f 89 30 79 3f 81 59 7a 3f
       1.0356343 0.987976 0.97339684 0.9779282
000110 72 7a 7a 3f 81 d0 76 3f 36 5b 81 3f b6 c8 76 3f
       0.97843087 0.964119 1.010596 0.9640001
000120 83 ac 77 3f c1 c7 7a 3f 41 36 80 3f 4a cc 7a 3f
       0.96747607 0.9796105 1.0016557 0.9796797
000130 85 43 78 3f ca ca 6e 3f a1 a7 7c 3f e2 a0 7f 3f
       0.96978027 0.9327818 0.9869328 0.9985486
000140 27 86 80 3f d5 50 7d 3f 0f 01 85 3f ba e0 79 3f
       1.004094 0.98951465 1.0390948 0.9760853
000150 13 e8 74 3f 8e c5 81 3f 10 98 76 3f bc e9 85 3f
       0.9566662 1.0138414 0.9632578 1.0461955
000160 22 44 70 3f 10 50 80 3f 10 82 7a 3f 66 cb 80 3f
       0.9385396 1.0024433 0.9785471 1.0062072
000170 c7 84 7b 3f 13 17 80 3f 43 90 7b 3f b7 36 82 3f
       0.9824948 1.0007042 0.98267 1.0172948
000180 1e 29 80 3f 9a f6 82 3f a4 98 7e 3f ef ef 78 3f
       1.0012548 1.0231507 0.9945166 0.9724111
000190 21 47 81 3f 38 96 77 3f cc 90 86 3f 21 9f 81 3f
       1.0099832 0.9671359 1.0512938 1.0126687
0001a0 b4 cd 7d 3f 71 39 83 3f d2 0e 74 3f 07 28 83 3f
       0.99142003 1.0251905 0.95335114 1.024659
0001b0 a7 ca 73 3f 34 4c 80 3f a2 97 7b 3f e2 31 83 3f
       0.952311 1.0023255 0.9827825 1.0249598
0001c0 97 44 81 3f d8 8c 76 3f 29 73 76 3f ee 58 81 3f
       1.0099057 0.9630866 0.9626947 1.0105264
0001d0 b7 12 7e 3f 9d 1a 82 3f 28 c8 7b 3f 77 93 7f 3f
       0.99247307 1.0164372 0.9835229 0.9983439
0001e0 1f 80 83 3f c2 3b 79 3f 1c 65 79 3f a4 6e 79 3f
       1.0273474 0.9735681 0.97419906 0.9743445
0001f0 21 e0 7c 3f 0f 65 71 3f 29 a6 68 3f c0 1e 78 3f
       0.98779494 0.9429483 0.9087854 0.9692192

arith.constant5 f4 [1, 1, 256]
000000 76 0b c1 3c 66 90 89 bb 37 59 5f bb f3 f0 6d 3c
       0.023565035 -0.004198122 -0.0034080276 0.014522779
000010 03 5d f6 bc 7e 77 b4 bc 2a 24 9a 3c 7c 7b c8 bc
       -0.030073648 -0.022029635 0.018816072 -0.024472944
000020 9c c1 f3 3c 10 e3 16 bc 47 8a 9d bc ac 92 05 bc
       0.029755406 -0.009209409 -0.019230975 -0.008152645
000030 08 5f 3d 3d c2 bb 8f bb fd 04 5a bd 53 7e 59 ba
       0.046233207 -0.004386396 -0.053227413 -0.0008296717
000040 f5 5f 7b bb a4 f5 9c bc d5 f9 50 3c 66 b4 bb bc
       -0.0038356755 -0.0191601 0.012754877 -0.02291317
000050 28 39 56 3d b4 94 58 bc 0b 57 6f bb e6 c6 1d 3d
       0.052300602 -0.013219047 -0.0036520388 0.038519762
000060 03 62 8b 3b 16 bf 28 3d bf 96 a7 bc 75 79 d6 3a
       0.0042536273 0.04119786 -0.020457624 0.0016363101
000070 85 1d 9b 3c f7 fe 8d 3c da 43 f4 bb 7f 12 ec 3b
       0.018934974 0.01733349 -0.0074543776 0.0072043533
000080 c7 eb da 3c 3d ac 51 bc 42 ab 9c 3c a9 16 32 3d
       0.026723756 -0.012797412 0.01912463 0.04347864
000090 05 e1 e3 3b 7a 82 2b 3c 35 1c 81 bb 03 91 49 3c
       0.0069543147 0.01046812 -0.00394013 0.01230264
0000a0 3e 23 55 3d ef 97 1c bd 66 a7 1f ba 6b 16 3a ba
       0.052035563 -0.038230833 -0.0006090313 -0.00070986775
0000b0 53 10 05 3d 11 59 69 bb 0e 6c 1b bd fa f6 83 3c
       0.03248627 -0.0035606066 -0.037944846 0.016108979
0000c0 28 e6 8c bc a5 a9 db bc e3 b7 85 3a fa 97 7a 3b
       -0.01719959 -0.026814291 0.0010201897 0.0038237558
0000d0 89 0d fe bb 12 33 ab bb 62 16 8c 3b b7 ff 99 bc
       -0.0077530784 -0.005224594 0.004275129 -0.018798692
0000e0 e7 73 88 3c 04 f3 f7 3c 7e da 59 3c d2 94 89 3c
       0.016656829 0.030267246 0.0132967215 0.016794596
0000f0 26 bf a6 3c bc 27 97 3b 82 6c 50 3c 03 58 00 3d
       0.020354819 0.004612891 0.012721183 0.031333935
000100 42 a2 50 3d ad a3 1a bc 35 12 80 3c d4 ab 65 3b
       0.05093599 -0.009438437 0.015633682 0.0035045044
000110 91 26 ce bc 6a f7 27 bc 96 a9 74 bb a7 78 97 3b
       -0.025164874 -0.010251859 -0.0037332526 0.004622537
000120 84 ec 8c 3c da 4c 01 3c 8f 8b 90 3c 9b 12 2a 3d
       0.017202623 0.007891858 0.017644672 0.04152165
000130 67 6c 49 bc 91 65 61 bb f6 52 0e bc ac ce 88 3d
       -0.012293912 -0.0034392814 -0.008686772 0.066800445
000140 ea a8 23 3a 3f cb cb bb 6f 90 0e 3d 19 d6 07 bd
       0.00062431267 -0.006219297 0.03480571 -0.033163164
000150 89 4e 9e 3c eb cb 1c bc 47 72 1e 3b 2b 52 9d bc
       0.019324558 -0.009570102 0.0024177001 -0.01920422
000160 3f 7a 20 bd ad dd 0a bd fb 7f 22 bd b7 67 83 bc
       -0.039179083 -0.033902813 -0.039672833 -0.016040666
000170 4b 1e db 3c 24 8b 78 bc 22 b7 3e bc 2c 78 fd bb
       0.026747843 -0.015169892 -0.011640342 -0.007735273
000180 ac 96 82 bd 10 08 b8 b9 49 20 fc bb 72 a6 16 3c
       -0.06376395 -0.00035101222 -0.0076942784 0.009194957
000190 7a 18 30 bc ec 3f 9e bb c5 b6 4b 3d 99 84 8a 3c
       -0.010748023 -0.0048293974 0.04973485 0.01690893
0001a0 64 d0 f7 bc 00 76 4e 3c ef 72 4a 3d 5a e6 30 3d
       -0.030250736 0.012601376 0.049426015 0.04318843
0001b0 2a 7f be bb 71 39 8d 3c 34 72 57 39 6f 71 8b bc
       -0.005813499 0.017239304 0.00020546542 -0.017021863
0001c0 c9 f7 6c bc 4e 6d 1a 3c 66 66 61 3c a4 42 23 bb
       -0.014463373 0.009425474 0.013757324 -0.0024911547
0001d0 2c 24 f3 bb 9d 6a e8 bc 48 96 f2 bc e0 ef e1 bc
       -0.0074200835 -0.02837115 -0.029612675 -0.027580202
0001e0 ec 43 a3 3c b8 ec 1d 3c fc d4 a0 3c da a3 1e 3d
       0.019929849 0.009638958 0.019632809 0.03873048
0001f0 13 f5 6e bc 00 83 92 ba e8 ef 43 3c 6b d6 77 3d
       -0.014584797 -0.0011177957 0.011959054 0.06050722
000200 ab 02 3e 3c fc a3 60 ba a1 77 21 3d 48 dd 7d 3c
       0.011597316 -0.00085693575 0.039420728 0.015494652
000210 a4 9e e4 bc 4f e4 b8 3c c6 00 ad 3b 10 dd dd bc
       -0.027907677 0.022569804 0.005279633 -0.02708295
000220 32 4d 9b bc 51 02 1e 3d 75 2a cf bc 3e b0 79 3b
       -0.018957708 0.038576428 -0.0252888 0.0038099433
000230 c6 af 09 bd e8 6e 80 bc d5 84 86 bc 61 30 16 bd
       -0.033614896 -0.015677884 -0.016420761 -0.03666723
000240 50 b5 41 bd ac 3f 32 3c 0d 81 87 bc 2a 54 93 39
       -0.047292054 0.010879438 -0.016541028 0.00028100732
000250 7e 1c b2 3c 5b 08 08 bd 2d b7 f2 bc 95 20 5b bc
       0.021742102 -0.033211093 -0.02962836 -0.013374467
000260 af 9a 94 bc c4 c6 60 bc 82 71 4e bd d5 87 ca 3b
       -0.018140165 -0.013719264 -0.05040122 0.006180743
000270 eb 64 1f 3b 48 a6 8b bb 8d 0a a6 bc fd 64 0a 3c
       0.0024321626 -0.0042617656 -0.020268703 0.008446929
000280 39 e4 e9 bc 04 82 ec 3c bd 47 cc bc a0 da 78 3a
       -0.028551208 0.02887059 -0.024936551 0.0009493027
000290 4e 09 60 3c 38 86 85 3c 58 74 4c 3c c8 70 7b bc
       0.013674093 0.016299352 0.01247891 -0.015346713
0002a0 bb 6b 6c bc 67 94 19 3d 2a 8f cc bc ea f8 ee 3a
       -0.014429982 0.037495043 -0.02497061 0.0018232141
0002b0 ff b3 81 bc d6 5c 5b 3d 7c 80 b1 3c 47 88 a7 bb
       -0.0158329 0.053555332 0.021667711 -0.005112681
0002c0 2e 3f 8c 3c 5f 2f 9f bc 6e f3 e9 3c 1e 9f 40 3c
       0.01711997 -0.019431768 0.02855846 0.0117566865
0002d0 35 d1 5d bb ff e1 e0 bb e6 ba f0 3c 6f 85 df bb
       -0.003384662 -0.0068628783 0.029385995 -0.0068213264
0002e0 a3 e0 2e bd fa 46 bc 3c 4f c1 35 bc 26 e3 90 3c
       -0.0426947 0.022983063 -0.011093452 0.017686438
0002f0 d3 20 40 bd d4 fc e0 ba 27 c3 7e bc 87 5c ac 3c
       -0.046906304 -0.0017165192 -0.015549458 0.021040214
000300 b2 55 59 3c e9 bb 89 3c 9a 52 a9 bc e7 6f 27 bd
       0.01326506 0.016813235 -0.02066927 -0.040878203
000310 79 00 87 bc 77 fc 3f 3d 3a 3b c0 3a bb 90 df bc
       -0.016479718 0.04687163 0.0014666088 -0.027290693
000320 6f a4 b7 bc 92 4c 47 3b de 68 b5 3b d2 54 79 bd
       -0.022417275 0.003041063 0.005536183 -0.060871907
000330 f9 38 a0 ba 1c c6 23 bd 1d cc 01 3c ff 80 7a 3a
       -0.001222401 -0.039983854 0.0079222 0.0009555965
000340 1d d5 e3 3c 91 9f 13 3c 32 08 c7 bc c5 e9 c4 3a
       0.027811581 0.009010212 -0.0242959 0.0015023282
000350 7b a6 88 3c 57 1e 2e 3d 07 18 10 3d 07 bb 2f bc
       0.016680947 0.042509403 0.035179164 -0.010725743
000360 92 fd 6f bc c3 61 8e 3b 15 75 57 bc ea 7f fd bb
       -0.014647858 0.00434515 -0.013150473 -0.007736196
000370 19 f0 13 bd 10 91 5e 3c 6b af 83 3a ee bf bb bc
       -0.036117647 0.01358439 0.0010046785 -0.022918668
000380 3e f8 a3 3a dd 8f 8f 3c 03 d0 62 ba e5 97 31 bd
       0.0012509895 0.017524654 -0.0008652212 -0.04335775
000390 a3 35 10 3c bf 3e 53 3a ef 16 00 3c d3 35 54 3c
       0.0088018505 0.0008058361 0.007817968 0.012952286
0003a0 ab fc df bc e1 0c bb 3c 91 34 67 3c 87 0a d9 3c
       -0.027342161 0.02283329 0.014111654 0.026494278
0003b0 58 85 5d bb f5 f5 92 3c 93 7a dd bb 3e 41 1c 3d
       -0.0033801403 0.017939547 -0.0067589968 0.038148157
0003c0 c6 86 34 3d 41 1c 95 bc b9 01 d5 bc 04 57 86 bc
       0.044073842 -0.01820195 -0.026001798 -0.016398914
0003d0 ec ce 9c 3c 3e 38 0b ba 00 93 c4 3c 58 a5 25 bc
       0.019141637 -0.000531081 0.023995876 -0.010110222
0003e0 5a 38 28 bd 55 20 bc 3c b2 3e a5 3c 7d c4 6d bc
       -0.041069366 0.022964636 0.020171497 -0.0145121785
0003f0 08 3a 10 3c f0 79 33 3c bb 2d 20 3c 6f 4b 58 bc
       0.008802898 0.010954365 0.009776528 -0.0132015785

arith.constant6 f4 [1, 1, 256]
000000 3f ce 79 3f fd 7c 81 3f c7 94 75 3f 0a e6 6e 3f
       0.9758033 1.0116268 0.9593014 0.9331976
000010 c7 00 83 3f 6f 07 70 3f 88 5b 78 3f 94 e5 7b 3f
       1.0234612 0.9376134 0.97014666 0.98397183
000020 88 02 89 3f 21 c5 83 3f 7c f2 7c 3f 91 1a 7d 3f
       1.0703897 1.0294534 0.988075 0.9886866
000030 62 e5 6f 3f 9b 80 70 3f 43 7f 7f 3f 39 70 81 3f
       0.93709385 0.93946236 0.9980356 1.0112373
000040 e8 4d 7f 3f 1a 5a 81 3f ac 61 7e 3f 31 12 80 3f
       0.9972825 1.0105622 0.99367785 1.0005552
000050 12 b4 7a 3f a8 d0 77 3f 71 0f 82 3f 66 a1 7a 3f
       0.97931015 0.9680276 1.0160962 0.97902524
000060 62 61 79 3f 35 19 73 3f 5c 61 78 3f 7c 81 7d 3f
       0.9741422 0.9496034 0.9702356 0.990257
000070 b1 05 73 3f 4f 26 7f 3f ed 6e 7f 3f 4f f4 73 3f
       0.9493056 0.9966783 0.99778634 0.9529466
000080 c5 d1 7a 3f b9 0a 7e 3f 90 86 82 3f 9e 5f 81 3f
       0.9797633 0.9923511 1.0197315 1.0107305
000090 ac 38 7f 3f 55 28 7d 3f 27 e6 82 3f 92 22 71 3f
       0.9969585 0.98889667 1.0226487 0.94193375
0000a0 50 73 85 3f 9f 81 7c 3f 6a b7 79 3f c4 1c 7c 3f
       1.0425816 0.98635286 0.9754549 0.9848139
0000b0 8b ce 7e 3f a4 4c 76 3f 91 00 79 3f a9 ef 75 3f
       0.9953391 0.96210694 0.9726649 0.9606882
0000c0 04 44 7e 3f 31 1f 8e 3f eb 9c 78 3f ea b7 80 3f
       0.99322534 1.1103269 0.9711444 1.0056126
0000d0 70 8e 81 3f 3a b9 7b 3f 70 06 76 3f b2 d9 81 3f
       1.0121593 0.9832951 0.9610357 1.014456
0000e0 42 2f 7a 3f b8 b1 74 3f 06 c0 79 3f 25 01 7b 3f
       0.9772836 0.9558368 0.9755863 0.9804862
0000f0 35 36 7f 3f 55 bf 86 3f 00 88 80 3f ad 37 72 3f
       0.9969209 1.052714 1.0041504 0.94616205
000100 da d5 80 3f 16 32 7d 3f 9e 3b 73 3f 7a b2 7c 3f
       1.0065262 0.9890455 0.95012844 0.98709834
000110 73 64 86 3f 62 6c 7e 3f 35 b0 87 3f f9 c5 7b 3f
       1.0499405 0.9938413 1.0600649 0.9834896
000120 98 83 7e 3f c0 1f 7c 3f 9a ce 8c 3f ef 72 80 3f
       0.99419546 0.98485947 1.100055 1.0035075
000130 7b 5f 6a 3f f7 2d 78 3f 1f ae 7b 3f db f3 7e 3f
       0.9155194 0.96945137 0.9831256 0.99590844
000140 49 79 79 3f 44 ba 7b 3f fb f8 73 3f 73 a4 83 3f
       0.9745069 0.98331094 0.9530179 1.0284561
000150 24 37 83 3f 29 eb 7b 3f 1e 1b 82 3f 01 c1 72 3f
       1.0251203 0.984057 1.0164526 0.9482575
000160 0e 28 81 3f 4e c4 88 3f 75 c6 7b 3f 7a 79 83 3f
       1.0090349 1.0684907 0.98349696 1.0271447
000170 15 31 82 3f 7f a0 6b 3f 4b a7 82 3f b5 4a 7b 3f
       1.0171229 0.9204177 1.0207304 0.9816087
000180 54 4e 82 3f 0e d7 76 3f c4 b6 77 3f 05 56 79 3f
       1.0180154 0.964219 0.96763253 0.9739688
000190 a8 d3 7d 3f 55 70 82 3f 8a e9 72 3f 06 6d 80 3f
       0.99151087 1.0190531 0.948876 1.0033271
0001a0 7f 7b 76 3f d2 ae 80 3f 8a 8b 7e 3f 47 60 78 3f
       0.9628219 1.0053351 0.9943167 0.9702191
0001b0 35 fe 76 3f 36 b0 75 3f d1 65 7c 3f f6 92 78 3f
       0.9648164 0.95972 0.9859286 0.97099245
0001c0 76 ec 83 3f 72 5d 77 3f be 37 7d 3f 3d 58 81 3f
       1.0306537 0.9662696 0.9891318 1.0105053
0001d0 c2 c8 80 3f 46 c7 7f 3f ee b7 75 3f dc f4 74 3f
       1.0061266 0.9991344 0.9598378 0.95686126
0001e0 20 8a 80 3f 29 d7 75 3f e1 cb 7c 3f c9 a0 7b 3f
       1.0042152 0.96031433 0.98748595 0.98292214
0001f0 a2 e5 7f 3f fe df 73 3f 13 cc 7d 3f 5d 1d 83 3f
       0.99959767 0.9526366 0.9913952 1.0243336
000200 93 d5 83 3f 8d 98 77 3f 4a 87 78 3f a5 05 77 3f
       1.0299553 0.9671715 0.97081435 0.9649299
000210 4a a6 77 3f 4d 2d 79 3f 17 51 78 3f 34 78 78 3f
       0.9673811 0.9733475 0.96998733 0.97058415
000220 ef de 77 3f b0 17 85 3f 0b 11 8d 3f f9 40 7c 3f
       0.96824545 1.0397854 1.1020826 0.9853664
000230 a8 b3 7a 3f 27 ee 7d 3f cb e3 7d 3f 7a f3 81 3f
       0.97930384 0.99191517 0.9917571 1.0152428
000240 a6 18 7c 3f df b0 7f 3f f5 38 7e 3f a8 95 7e 3f
       0.9847511 0.9987926 0.9930566 0.9944711
000250 20 98 76 3f 48 9c 75 3f 8b d9 74 3f ed 4e 77 3f
       0.96325874 0.9594159 0.95644444 0.96604806
000260 8a f9 79 3f ea 0e 7e 3f 04 f5 81 3f 54 bd 81 3f
       0.9764639 0.9924151 1.0152898 1.0135903
000270 e3 d7 7f 3f 9a bf 7c 3f 8b 26 7e 3f 6a 19 76 3f
       0.9993879 0.9872986 0.9927756 0.9613253
000280 8d 77 80 3f c9 ea 79 3f 63 f0 82 3f ca 21 7d 3f
       1.0036484 0.9762388 1.022961 0.98879683
000290 c0 1e 7c 3f 1d cf 75 3f 14 4b 80 3f c0 27 76 3f
       0.9848442 0.96019155 1.0022912 0.96154404
0002a0 c6 20 81 3f 12 34 83 3f af 37 7e 3f f1 14 85 3f
       1.0088127 1.0250266 0.99303716 1.0397016
0002b0 dc d1 81 3f cf cc 70 3f 02 4e 7f 3f 45 05 74 3f
       1.0142169 0.94062513 0.99728405 0.9532054
0002c0 15 69 7b 3f d9 82 80 3f 38 1a 81 3f 5a 4e 7c 3f
       0.9820722 1.0039932 1.0086126 0.98557055
0002d0 26 41 7f 3f 6a fe 7c 3f 4f aa 7a 3f d7 61 6e 3f
       0.99708784 0.98825705 0.9791612 0.9311804
0002e0 6a 07 82 3f 19 26 79 3f 46 ac 7a 3f 28 a1 84 3f
       1.0158513 0.9732376 0.9791912 1.0361681
0002f0 57 0f 7b 3f 28 a1 80 3f a8 93 6b 3f 8e c1 72 3f
       0.9807028 1.0049181 0.9202218 0.9482659
000300 88 fc 83 3f 91 38 88 3f d8 b7 80 3f 28 c4 72 3f
       1.0311441 1.0642263 1.0056105 0.9483056
000310 84 74 82 3f f2 12 7b 3f 07 9b 83 3f ac e2 73 3f
       1.0191808 0.98075783 1.0281686 0.9526775
000320 b9 d3 74 3f ce 8c 82 3f 38 40 73 3f d4 05 7f 3f
       0.95635563 1.019922 0.95019865 0.9961827
000330 a2 43 6f 3f 58 b7 7a 3f 19 8e 78 3f c4 fb 88 3f
       0.93462574 0.9793601 0.97091824 1.0701833
000340 d0 9a 72 3f e7 a8 83 3f f3 b2 7e 3f 48 58 74 3f
       0.94767475 1.028592 0.99491805 0.95447206
000350 00 a1 83 3f ae d9 7e 3f e0 3d 74 3f f9 a4 7b 3f
       1.0283508 0.995509 0.95406914 0.98298603
000360 e8 59 72 3f 46 e4 81 3f 08 42 81 3f 52 38 7a 3f
       0.94668436 1.0147789 1.0098276 0.9774219
000370 28 4b 76 3f eb db 7d 3f be b3 80 3f d8 70 7b 3f
       0.9620843 0.99163693 1.0054853 0.9821906
000380 92 c9 88 3f cc 87 74 3f 3e f9 73 3f d5 bd 84 3f
       1.0686514 0.9551971 0.9530219 1.0370432
000390 77 0b 80 3f 5e 1a 7b 3f 8c 03 71 3f 77 ef 7a 3f
       1.0003499 0.9808711 0.9414604 0.98021644
0003a0 95 6c 89 3f 12 66 7d 3f 1f f4 82 3f f8 4b 74 3f
       1.0736262 0.9898387 1.023075 0.9542842
0003b0 83 20 77 3f 05 0e 80 3f 1f 0a 7e 3f 7c 6c 83 3f
       0.96533984 1.0004278 0.99234194 1.0267482
0003c0 ac 70 78 3f ae d3 78 3f 86 e3 7c 3f 9a 93 7f 3f
       0.97046924 0.97198 0.98784673 0.998346
0003d0 36 b3 7b 3f 48 5c 85 3f 8a dd 79 3f e0 7f 7d 3f
       0.9832033 1.0418787 0.97603667 0.99023247
0003e0 81 f7 73 3f ff 26 7a 3f 4d 39 83 3f 65 f4 82 3f
       0.95299536 0.97715753 1.0251862 1.0230833
0003f0 73 b8 7f 3f f0 e9 84 3f 22 19 77 3f 36 c5 74 3f
       0.9989082 1.0383892 0.96522725 0.9561342

arith.constant7 f4 [256]
000000 8e 46 23 bf b1 c9 60 bf ba 7e 3b bf 92 19 17 bf
       -0.6377953 -0.87807757 -0.73240244 -0.5902339
000010 71 1c f9 be 24 9d 3e bf a5 58 ff be 95 13 1f bf
       -0.48654512 -0.7445853 -0.49872318 -0.62139255
000020 48 09 29 bf 86 72 2a bf d3 54 3c bf f7 2d 1c bf
       -0.6602979 -0.66581 -0.7356693 -0.61007637
000030 2c ec 15 bf e3 36 1d bf db 13 0e bf 7a c3 29 bf
       -0.58563495 -0.61411875 -0.5549905 -0.663139
000040 68 14 28 bf dd 55 2c bf 49 fd 18 bf 91 c6 10 bf
       -0.6565614 -0.67318517 -0.5976148 -0.5655299
000050 eb c0 28 bf 96 67 53 bf e1 4a 2e bf 5c a5 07 bf
       -0.6591937 -0.82579935 -0.68083006 -0.52986693
000060 36 37 33 bf 9b 74 0b bf 41 9e 11 bf 50 8f 12 bf
       -0.7000612 -0.544748 -0.568821 -0.5724993
000070 18 d3 17 bf 41 7c 2c bf aa 9e 12 bf 9e 7d 25 bf
       -0.5930648 -0.67377096 -0.5727335 -0.646448
000080 7f eb 11 bf 0e a2 53 bf 67 25 2c bf e1 cf 14 bf
       -0.56999964 -0.8266915 -0.6724457 -0.581297
000090 31 89 06 bf 7a 64 48 bf 5c 0b 24 bf c0 2b 38 bf
       -0.5255309 -0.78278315 -0.64079833 -0.7194176
0000a0 90 9e 3a bf 94 07 33 bf 80 74 4b bf bf df 38 bf
       -0.728982 -0.6993344 -0.7947464 -0.7221641
0000b0 41 ef 0c bf a2 01 1f bf c2 6a 24 bf 93 87 2d bf
       -0.5505257 -0.62111866 -0.642254 -0.67784995
0000c0 8f 5e 25 bf 48 f7 2c bf a1 6e 42 bf 0d cf 1e bf
       -0.6459741 -0.6756482 -0.75950056 -0.62034684
0000d0 6c 9b 09 bf bb 1e 2e bf 55 28 2f bf ce aa 0b bf
       -0.5375278 -0.6801564 -0.68420917 -0.545575
0000e0 15 4f 2c bf 92 46 13 bf 8d cc 45 bf cc 81 4b bf
       -0.6730817 -0.57529557 -0.77265245 -0.7949493
0000f0 7a 0c 50 bf a3 3c 29 bf d9 0d 11 bf 97 31 21 bf
       -0.8126904 -0.6610815 -0.56661755 -0.62966293
000100 c3 bc 38 bf 51 69 28 bf 4f 5f 2a bf b7 f6 14 bf
       -0.7216303 -0.657857 -0.6655168 -0.58188957
000110 ea 01 3e bf a2 7c 0e bf ea 2a 15 bf 97 2a 35 bf
       -0.7422167 -0.55658925 -0.58268607 -0.7076811
000120 09 eb 51 bf 6b f4 18 bf 8e c5 31 bf 00 3a 0f bf
       -0.8199926 -0.5974795 -0.6944207 -0.55947876
000130 de 68 1e bf ca c2 47 bf b1 69 1a bf 02 77 46 bf
       -0.61878765 -0.780316 -0.6031752 -0.7752534
000140 82 98 0f bf c6 98 23 bf 8c 57 1d bf d5 e6 28 bf
       -0.56092083 -0.6390499 -0.6146171 -0.6597722
000150 b5 bd 22 bf d3 8b 2d bf c3 07 07 bf e7 8e 37 bf
       -0.6357072 -0.6779148 -0.5274622 -0.71702427
000160 4d ed 3f bf f5 c3 09 bf ce e6 2b bf ea 73 1f bf
       -0.7497147 -0.5381463 -0.67149055 -0.62286246
000170 8d 24 1e bf f1 07 3b bf b5 3f 41 bf c7 29 1b bf
       -0.6177452 -0.7305899 -0.75487834 -0.6061062
000180 c5 59 6c bf 92 84 56 bf 41 72 2f bf 77 8e 47 bf
       -0.9232448 -0.83796036 -0.6853371 -0.7795176
000190 f2 35 26 bf cd 68 3a bf a4 41 21 bf d1 10 50 bf
       -0.64926064 -0.72816163 -0.62990785 -0.8127566
0001a0 2a b7 45 bf 88 07 21 bf c1 05 1d bf b4 eb 21 bf
       -0.7723261 -0.62902117 -0.61336905 -0.6325028
0001b0 36 61 3e bf 4d 41 08 bf b7 df 2f bf f6 4f 42 bf
       -0.7436708 -0.5322464 -0.68700737 -0.7590326
0001c0 c5 60 42 bf e1 5b 75 bf d2 78 2f bf de ef 05 bf
       -0.7592891 -0.9584332 -0.6854373 -0.52319133
0001d0 e1 d6 26 bf 52 08 22 bf 3c 98 4f bf 82 25 3d bf
       -0.6517163 -0.63293946 -0.81091666 -0.7388536
0001e0 38 a3 19 bf 8d 5b 2a bf e8 ba 0c bf 42 2b 48 bf
       -0.6001468 -0.66545945 -0.54972696 -0.78191006
0001f0 8b 7e 3e bf 51 d6 0b bf f0 53 1d bf 13 aa 5f bf
       -0.7441184 -0.54623896 -0.61456203 -0.8736889
000200 98 7e 2d bf 25 ec 2d bf e1 de 41 bf be 7c 1b bf
       -0.6777129 -0.6793845 -0.7573071 -0.60737216
000210 8e 2c 29 bf 6b 75 23 bf fb 79 2f bf 85 1c 02 bf
       -0.6608361 -0.6385104 -0.685455 -0.5082477
000220 9f 0d 08 bf 7c 9b 42 bf 1e 58 30 bf 18 34 15 bf
       -0.53145784 -0.760185 -0.68884456 -0.58282614
000230 f9 83 16 bf 60 7b 27 bf 3d 9c 10 bf 5a 3f 1a bf
       -0.58795124 -0.6542263 -0.564884 -0.60252917
000240 79 66 0d bf 38 25 32 bf 6d a8 0c bf eb 21 0f bf
       -0.55234486 -0.6958804 -0.549445 -0.5591113
000250 85 6d 38 bf f5 b8 2f bf 90 bc 19 bf 96 c7 23 bf
       -0.72042114 -0.686416 -0.6005335 -0.6397642
000260 2b b6 20 bf b0 7d 19 bf 1e 70 3f bf 83 68 2f bf
       -0.62777966 -0.5995741 -0.7478045 -0.6851885
000270 f5 0e 1e bf f2 d6 08 bf 38 36 0a bf b5 58 34 bf
       -0.6174157 -0.5345298 -0.5398898 -0.70447856
000280 55 a4 2a bf ea 2a 39 bf 26 97 19 bf 9f 51 12 bf
       -0.66657 -0.72331107 -0.5999626 -0.57155794
000290 ba 35 23 bf 5b 60 24 bf c6 6c 1b bf 59 32 ed be
       -0.63753855 -0.64209527 -0.6071285 -0.46327475
0002a0 ee d5 12 bf 8a 99 14 bf 35 ae 2b bf 2e 9b 27 bf
       -0.5735768 -0.5804678 -0.67062694 -0.6547116
0002b0 d1 69 35 bf 93 1f 18 bf fe bf 3a bf 0e 40 15 bf
       -0.7086459 -0.5942318 -0.72949207 -0.58300865
0002c0 1c 8c 31 bf d9 3e 23 bf 95 58 14 bf ed 06 46 bf
       -0.69354415 -0.6376777 -0.57947665 -0.7735432
0002d0 d8 b0 1f bf a4 4d 14 bf 94 48 38 bf b7 a8 05 bf
       -0.6237922 -0.5793097 -0.71985745 -0.52210563
0002e0 18 1f 30 bf bb 3e 08 bf c6 d8 39 bf 33 05 14 bf
       -0.68797445 -0.5322072 -0.72596395 -0.57820433
0002f0 c6 4d 12 bf ce 13 2d bf d7 f0 13 bf 51 4f 23 bf
       -0.5714992 -0.67608345 -0.5778937 -0.637929
000300 40 3f 35 bf 3c ce 2d bf 34 14 19 bf c3 bf 2c bf
       -0.70799637 -0.67892814 -0.5979645 -0.67480105
000310 0d 27 3e bf cd a7 44 bf ab f5 2e bf 03 5f 35 bf
       -0.74278337 -0.76818544 -0.6834361 -0.708481
000320 64 ce 04 bf 8a fc 1f bf e6 55 50 bf af 75 20 bf
       -0.5187743 -0.6249472 -0.8138107 -0.6267957
000330 13 36 1e bf 4a cd 1e bf a2 31 21 bf a4 68 1f bf
       -0.6180126 -0.62031996 -0.6296636 -0.62269044
000340 b0 51 30 bf ac 7f 3b bf 27 90 0c bf 05 8d 43 bf
       -0.68874645 -0.73241687 -0.5490746 -0.76387054
000350 07 dc 2a bf df 6f 1b bf c4 d7 28 bf bb 56 4e bf
       -0.66741985 -0.60717577 -0.6595423 -0.8060109
000360 e5 c5 0b bf 86 a1 69 bf 79 df 11 bf 59 ac ef be
       -0.5459884 -0.9126209 -0.5698162 -0.46811178
000370 a6 b5 34 bf 98 5b 44 bf 25 b9 0b bf 89 c2 09 bf
       -0.70589674 -0.7670226 -0.54579383 -0.5381246
000380 ad 81 0d bf 99 df 29 bf 13 ef 30 bf f4 8f 2a bf
       -0.55275995 -0.6635681 -0.691148 -0.66625905
000390 8e 29 17 bf 54 72 33 bf 81 8d 31 bf 5e 36 08 bf
       -0.5904778 -0.70096326 -0.6935654 -0.5320796
0003a0 26 f6 23 bf bd 8c 26 bf f4 8b 05 bf 15 35 31 bf
       -0.6404747 -0.650585 -0.52166677 -0.6922162
0003b0 13 5a 13 bf bd 18 1e bf c4 a9 00 bf 45 a7 27 bf
       -0.5755932 -0.617565 -0.5025904 -0.6548961
0003c0 37 16 11 bf 8d f3 31 bf 5a 06 43 bf 85 64 25 bf
       -0.5667452 -0.69512254 -0.76181567 -0.64606506
0003d0 63 8a 47 bf 11 d4 3d bf c9 9a 46 bf 71 90 3d bf
       -0.77945536 -0.7415171 -0.77579933 -0.74048525
0003e0 1e 3e 23 bf 37 0e 1a bf d0 1e 0f bf a1 b5 10 bf
       -0.6376666 -0.6017794 -0.5590639 -0.56527144
0003f0 a5 aa 18 bf e8 0d 46 bf 77 a5 1f bf 45 97 0f bf
       -0.5963538 -0.7736497 -0.62361854 -0.56090194

arith.constant8 f4 [256]
000000 34 05 05 3f cf d4 06 3f 74 f0 f3 3e 7a 7e 7c 3f
       0.51961064 0.5266847 0.4764439 0.9863049
000010 13 c3 0c 3f 7b 08 38 3f f5 a6 07 3f 5f 84 26 3f
       0.5498516 0.7188794 0.5298913 0.6504573
000020 e0 00 1f 3f fc ae 1d 3f af ce 1b 3f cd 39 d4 3e
       0.6211071 0.6159513 0.6086225 0.41450348
000030 9b f9 27 3f 8c 71 31 3f ce 1e 22 3f 89 80 42 3f
       0.6561524 0.69313884 0.63328254 0.7597738
000040 26 82 29 3f eb ca 47 3f 9d 6c fd 3e 22 17 55 3f
       0.66214216 0.78044003 0.49496928 0.8323842
000050 6f 72 37 3f cf 36 eb 3e f0 de 1b 3f 9d e9 48 3f
       0.71658987 0.45940253 0.6088705 0.78481466
000060 60 06 1a 3f 84 0d a5 3f 35 94 0a 3f 33 d6 19 3f
       0.6016598 1.289475 0.54132396 0.6009247
000070 43 52 35 3f 5e 22 42 3f 7e 52 d3 3e 5d b8 5e 3f
       0.70828646 0.7583369 0.41273874 0.87000066
000080 f4 a0 14 3f 4a 11 e1 3e 85 28 ee 3e 20 48 6d 3f
       0.58058095 0.43958503 0.4651529 0.9268818
000090 2d 8c 32 3f f3 a8 db 3e 08 ba 45 3f 15 ab 28 3f
       0.6974514 0.42902336 0.77236986 0.6588605
0000a0 1e db c4 3e 42 9b 05 3f df 3f 21 3f 9d 39 ab 3e
       0.38448423 0.5219003 0.62988085 0.33442393
0000b0 af a4 4e 3f 25 be cd 3e 83 d6 44 3f 30 57 b4 3e
       0.8072004 0.4018413 0.7688982 0.3522277
0000c0 09 fd c9 3e 82 39 77 3f a6 80 24 3f 6f b1 12 3f
       0.39450863 0.96572125 0.642588 0.5730199
0000d0 3d 66 d6 3e 45 cc 43 3f ef 0c 0d 3f cc 45 e1 3e
       0.41874877 0.76483566 0.5509786 0.43998563
0000e0 d9 5f 25 3f bf 11 d1 3e 05 84 1a 3f be c4 16 3f
       0.64599377 0.40833852 0.60357696 0.58893955
0000f0 fc 2d 0d 3f dc 5d 17 3f 8d a2 d6 3e 78 ce 17 3f
       0.5514829 0.59127593 0.4192089 0.5929942
000100 3b 02 1f 3f 84 46 11 3f 6e 78 db 3e d5 2f b0 3e
       0.6211278 0.56748223 0.42865318 0.34411493
000110 7c 26 0c 3f 7b a0 0f 3f 19 bc 2a 3f b6 f0 d8 3e
       0.5474622 0.5610425 0.66693264 0.42371148
000120 88 de 04 3f 3f 90 59 3f ba 2f 2e 3f 7e 79 f3 3e
       0.51902056 0.8498573 0.68041575 0.4755363
000130 71 fc 5d 3f 49 00 26 3f e6 50 e9 3e f5 df 12 3f
       0.8671332 0.64844185 0.45569533 0.5737298
000140 0c 02 c5 3e 71 a2 0b 3f ef d9 b7 3e 47 95 1b 3f
       0.38478124 0.5454474 0.35908458 0.60774654
000150 ef 90 37 3f 9e ab d8 3e 7a 59 1f 3f c9 0e 2d 3f
       0.71705526 0.42318434 0.62245905 0.67600685
000160 68 db de 3e f8 a0 8a 3f 13 17 41 3f 3b b2 07 3f
       0.4352677 1.0830374 0.75425833 0.53006333
000170 07 22 a7 3e 0c 40 25 3f 6a ee 00 3f 09 42 e2 3e
       0.32643148 0.6455085 0.5036379 0.44191006
000180 3b 72 2e 3f ac 1d 36 3f a0 8d 3d 3f 15 ac 18 3f
       0.6814305 0.71139026 0.7404423 0.59637576
000190 7e 76 ba 3e 60 20 18 3f ac 38 e6 3e ca 06 1e 3f
       0.36418527 0.594244 0.44965112 0.6172911
0001a0 81 8d e3 3e af c0 28 3f 81 9f c6 3e db 24 28 3f
       0.44443896 0.6591901 0.38793567 0.65681237
0001b0 c3 45 40 3f 21 8d f2 3e 7b 68 b7 3e 55 cd 1d 3f
       0.7510645 0.47373298 0.358219 0.61641437
0001c0 e7 94 1c 3f a7 72 09 3f 8e 90 04 3f 12 41 d5 3e
       0.61164707 0.5369057 0.5178307 0.41651207
0001d0 f8 fb 02 3f e7 ed 19 3f 19 85 0d 3f da aa e6 3e
       0.51165724 0.60128635 0.55281216 0.45052224
0001e0 48 1b 39 3f 70 5e 14 3f 75 3f fa 3e 28 78 07 3f
       0.7230725 0.579566 0.4887654 0.5291772
0001f0 0a 95 2b 3f 7d 07 36 3f e1 17 bc 3e ad 4e 19 3f
       0.6702429 0.71105176 0.36736968 0.59885675
000200 c6 ae b1 3e ec 05 fb 3e 55 7b 02 3f eb 1a f0 3e
       0.34703654 0.49027956 0.5096944 0.46895537
000210 af 67 25 3f 6a b6 fd 3e 88 56 13 3f 2c 41 1e 3f
       0.64611334 0.49553233 0.5755391 0.61818194
000220 0e e4 1c 3f 95 c2 03 3f 8e 5b 4a 3f 2d 6a f2 3e
       0.61285484 0.51468784 0.7904595 0.4734663
000230 4a b8 5d 3f a2 fd 74 3f e9 84 45 3f fe 64 f0 3e
       0.8660933 0.9569951 0.7715593 0.4695205
000240 0b 1b 1c 3f ec ff 11 3f f6 cf 5c 3f cc 79 1b 3f
       0.60978764 0.5703113 0.86254823 0.6073272
000250 f2 a0 31 3f 3f 98 21 3f e8 9c 12 3f f2 72 43 3f
       0.6938621 0.63122934 0.5727067 0.7634727
000260 32 ff 46 3f 30 47 c0 3e 08 f0 f7 3e de bc 07 3f
       0.7773315 0.37554312 0.48425317 0.53022563
000270 7d 20 5c 3f 26 c1 0e 3f 42 f8 14 3f 90 54 25 3f
       0.85987073 0.5576347 0.5819131 0.6458216
000280 64 21 e1 3e 09 96 3c 3f 44 39 1e 3f 97 60 02 3f
       0.43970788 0.73666435 0.6180613 0.50928634
000290 54 d5 23 3f 61 7c 37 3f 68 21 28 3f 8f f7 1b 3f
       0.6399739 0.7167416 0.65675974 0.6092462
0002a0 fb 1f 2f 3f 2c f8 be 3e ca 0d cb 3e 74 14 d3 3e
       0.68408173 0.37298715 0.39658958 0.41226542
0002b0 de 1a 0a 3f 1b 52 f0 3e e3 49 29 3f 33 1e 1c 3f
       0.53947246 0.46937642 0.6612837 0.6098358
0002c0 8c 8b e3 3e b7 d7 04 3f f5 5a 0c 3f 3f 45 d0 3e
       0.44442403 0.51891655 0.5482629 0.4067783
0002d0 99 bc f3 3e d8 7a 2e 3f 75 41 19 3f 7a d0 1c 3f
       0.47604826 0.68156195 0.59865505 0.6125561
0002e0 14 77 39 3f 99 c4 ad 3e 5e 44 06 3f 7c 4c 9a 3f
       0.72447324 0.33939055 0.5244807 1.2054591
0002f0 d7 14 06 3f 11 af f2 3e cb 90 9c 3e 1d 38 e5 3e
       0.5237555 0.4739919 0.30579218 0.44769374
000300 82 49 22 3f 94 ea 2c 3f 53 e8 34 3f 43 08 db 3e
       0.63393414 0.6754544 0.70667 0.4277974
000310 d5 36 22 3f 91 bc 00 3f 9d bd 40 3f 7d df 09 3f
       0.6336492 0.5028773 0.75289327 0.5385664
000320 4e 88 4b 3f 1e 14 00 3f da e7 10 3f a0 68 2b 3f
       0.7950486 0.50030696 0.5660378 0.6695652
000330 72 51 5b 3f 75 33 11 3f 39 f0 2c 3f 58 57 3d 3f
       0.8567115 0.5671914 0.6755405 0.739614
000340 de eb fd 3e 05 1d 2b 3f 0a d5 35 3f c8 bb 11 3f
       0.49594015 0.66841155 0.71028197 0.56927156
000350 62 70 f3 3e 21 52 26 3f 29 ee fc 3e ab 43 00 3f
       0.4754668 0.6496907 0.49400452 0.50103253
000360 e5 34 0e 3f 64 64 06 3f d8 e6 5d 3f 02 13 58 3f
       0.5554946 0.52496934 0.86680365 0.84404004
000370 50 7c 29 3f 4b 88 27 3f 61 07 08 3f e9 73 db 3e
       0.6620531 0.6544234 0.5313626 0.4286187
000380 23 58 4a 3f 9a f7 b0 3e cd 37 17 3f 2f 50 c7 3e
       0.79040736 0.34563905 0.5906952 0.38928363
000390 dd 01 4a 3f be 7c 15 3f fc 90 2c 3f 0f 19 f2 3e
       0.78909093 0.58393466 0.6740873 0.47284743
0003a0 f5 4a 48 3f d4 d9 c4 3e 05 0d db 3e fb ed 02 3f
       0.78239375 0.3844744 0.4278337 0.5114438
0003b0 32 84 34 3f 81 07 17 3f 23 f5 02 3f c2 f0 b4 3e
       0.70514214 0.58995825 0.511553 0.35339934
0003c0 4d 3f 5f 3f cb e3 2d 3f 5d aa 2b 3f 5b 76 f0 3e
       0.87205964 0.6792571 0.6705683 0.46965298
0003d0 5b 11 03 3f b8 0f 06 3f e4 4e 16 3f 23 26 18 3f
       0.5119836 0.52367735 0.5871413 0.5943319
0003e0 76 13 eb 3e 12 9b 3a 3f fa 82 30 3f 50 7b 44 3f
       0.45913285 0.7289287 0.68949854 0.7675066
0003f0 ed b3 3d 3f 25 90 0e 3f ee 34 06 3f 77 66 30 3f
       0.7410267 0.556887 0.52424514 0.6890635

arith.constant9 f4 [128]
000000 ef 0c 0c bf 1f ef 21 bf dc 05 27 bf 9a d9 02 bf
       -0.54707235 -0.63255495 -0.65243316 -0.51113284
000010 74 d0 0c bf 2c db 0e bf 1b 61 13 bf e5 8e 19 bf
       -0.55005574 -0.5580318 -0.57570046 -0.59983665
000020 db ca 59 bf 21 4f 41 bf bd 81 16 bf 22 94 00 bf
       -0.8507516 -0.75511366 -0.58791715 -0.5022603
000030 8b 3f 27 bf 71 8d 15 bf f5 66 04 bf 9c 77 28 bf
       -0.65331334 -0.5841895 -0.517196 -0.6580751
000040 af 2d 0e bf 23 1e 45 bf de d0 3c bf 71 9a f4 be
       -0.5553846 -0.7699911 -0.73756206 -0.4777408
000050 76 10 26 bf 85 d5 0e bf 26 dc 24 bf 67 e5 41 bf
       -0.6486887 -0.55794555 -0.6439842 -0.75740665
000060 36 f7 47 bf 96 54 c2 be 8c 83 3c bf 56 cc 27 bf
       -0.7811159 -0.3795516 -0.73638225 -0.65546167
000070 7c 8f 41 bf 8b 92 28 bf 36 5b 10 bf dc 32 0d bf
       -0.75609565 -0.65848607 -0.56389177 -0.5515573
000080 7c d0 38 bf 99 2a 21 bf a9 68 4a bf a5 c4 27 bf
       -0.7219312 -0.62955624 -0.7906595 -0.6553443
000090 a4 ca 29 bf fa 6e 1f bf c1 e2 16 bf 60 42 32 bf
       -0.6632483 -0.6227871 -0.5893975 -0.6963253
0000a0 b4 10 20 bf 6e bb f4 be 2b 86 33 bf 61 f8 1f bf
       -0.62525487 -0.47799248 -0.701266 -0.6248837
0000b0 c7 55 f7 be 07 f9 24 bf 6e 5c 3a bf ab ee ff be
       -0.4830763 -0.64442486 -0.72797287 -0.49986777
0000c0 22 0c 42 bf 33 f3 39 bf 30 d6 1f bf 90 34 17 bf
       -0.75799763 -0.7263672 -0.624362 -0.5906458
0000d0 77 10 2b bf 41 97 23 bf 81 39 33 bf ec ab 06 bf
       -0.66822 -0.6390267 -0.7000962 -0.5260608
0000e0 4d 76 20 bf 44 d9 34 bf 0b fd 23 bf 13 84 0f bf
       -0.6268051 -0.7064402 -0.6405799 -0.56060904
0000f0 a1 22 19 bf f6 c0 e9 be 0a 1b 3d bf ff 53 cf be
       -0.59818465 -0.4565503 -0.73869383 -0.4049377
000100 36 c7 16 bf b8 d7 06 bf b9 ca 34 bf 9e e0 20 bf
       -0.5889772 -0.5267291 -0.7062183 -0.6284274
000110 d1 8f 18 bf f3 e7 1c bf 5e 5f 19 bf b3 4d 35 bf
       -0.59594446 -0.61291426 -0.59911144 -0.70821685
000120 c7 f0 32 bf ef 84 0f bf 22 34 f2 be a7 6f 2d bf
       -0.6989865 -0.56062216 -0.473054 -0.6774849
000130 03 30 e8 be 34 89 22 bf 21 18 0f bf 09 62 11 bf
       -0.4534913 -0.63490605 -0.5589619 -0.56790215
000140 e3 9f 27 bf e5 77 32 bf 5e 84 16 bf ba cd 3c bf
       -0.6547834 -0.69714195 -0.58795726 -0.73751414
000150 e2 07 0e bf 64 00 2b bf b3 df 0b bf ed 28 44 bf
       -0.5548078 -0.6679747 -0.5463821 -0.7662495
000160 f2 89 1f bf a0 3a 15 bf 19 fd f5 be f4 e6 39 bf
       -0.6231986 -0.5829258 -0.4804466 -0.7261803
000170 f4 7f 16 bf b8 33 f2 be bc 00 2c bf 2e 75 47 bf
       -0.5878899 -0.47305083 -0.6718862 -0.77913177
000180 25 3b 0f bf a4 c7 2f bf 58 92 48 bf 6c ec 24 bf
       -0.5594962 -0.68664 -0.783483 -0.6442325
000190 7f 05 d6 be 98 0b 44 bf c0 bf 27 bf aa 45 42 bf
       -0.41801068 -0.7658019 -0.6552696 -0.7588755
0001a0 45 1f 49 bf fc 6a 44 bf 61 7a 2d bf 20 0c 1b bf
       -0.7856334 -0.76725745 -0.6776486 -0.60565376
0001b0 8b 60 2b bf 9d 6c 4a bf bb 92 dd be 6b 56 24 bf
       -0.6694419 -0.7907198 -0.4327601 -0.64194363
0001c0 25 68 38 bf 2e 2a 0c bf f8 27 f8 be aa 28 24 bf
       -0.7203391 -0.5475186 -0.48467994 -0.6412455
0001d0 58 14 34 bf a8 0d 12 bf c2 a1 58 bf 1c ae 44 bf
       -0.7034354 -0.5705209 -0.8462182 -0.7682817
0001e0 6a c6 23 bf 5e 7d 1e bf a5 9c 33 bf cc f5 4b bf
       -0.6397463 -0.61910045 -0.70160896 -0.7967193
0001f0 81 6f 11 bf 21 f7 4b bf 57 5e 0c bf 21 39 05 bf
       -0.56810766 -0.79673964 -0.5483145 -0.52040297

arith.constant10 f4 [128]
000000 be 4f 28 3f b9 bc 99 3f 26 16 89 3f f7 97 15 3f
       0.65746677 1.2010719 1.0709884 0.58435005
000010 e6 0e 33 3f 15 d2 5c 3f 4e 35 42 3f e5 a5 4c 3f
       0.6994461 0.8625806 0.75862586 0.79940635
000020 cc 73 73 3f 9f 2d 78 3f ed 71 43 3f 48 29 05 3f
       0.95098567 0.9694461 0.7634571 0.52016115
000030 e0 42 46 3f cf 94 54 3f 18 ee 32 3f 59 c3 91 3f
       0.77445793 0.83039564 0.6989455 1.138774
000040 fd 73 25 3f b6 7c 6e 3f cd e1 43 3f 36 9b 0f 3f
       0.6463011 0.93159044 0.7651642 0.5609621
000050 c7 24 34 3f 83 c6 8d 3f ab 2d 76 3f a5 68 69 3f
       0.7036862 1.1076206 0.96163434 0.911753
000060 39 be 6b 3f 1d 0c 2e 3f 2d e3 64 3f e6 a9 22 3f
       0.9208713 0.67987233 0.8940914 0.63540494
000070 ae 57 19 3f 93 94 08 3f f9 2f 47 3f ec 52 44 3f
       0.59899414 0.53351706 0.77807575 0.7668903
000080 f9 42 23 3f ba 01 62 3f ea 53 7e 3f 9d 02 52 3f
       0.6377407 0.88283885 0.9934679 0.8203524
000090 cc 6e 3a 3f 8d b5 19 3f 18 d7 1c 3f 4e 19 0c 3f
       0.7282531 0.6004265 0.61265707 0.5472611
0000a0 0b e3 fd 3e 1d 59 ff 3e f7 fc 62 3f bb 79 30 3f
       0.49587283 0.49872676 0.88667244 0.68935746
0000b0 17 8f 2d 3f 36 62 17 3f 85 41 7f 3f 13 c6 45 3f
       0.6779646 0.59134233 0.9970935 0.7725536
0000c0 28 f8 6d 3f e6 0d 87 3f d6 fe 09 3f 93 06 0f 3f
       0.9295678 1.0551116 0.53904474 0.55869406
0000d0 36 68 37 3f 95 38 5e 3f e8 aa 13 3f 51 11 33 3f
       0.7164339 0.8680509 0.5768266 0.699483
0000e0 a5 83 89 3f 35 5e 53 3f 46 01 41 3f ac 20 87 3f
       1.07433 0.82565624 0.7539257 1.0556846
0000f0 62 7c 2a 3f 69 c8 2e 3f 57 7a 77 3f cf 26 27 3f
       0.66596043 0.6827455 0.9667105 0.6529359
000100 07 19 23 3f fa 9f 47 3f 96 ca 6f 3f e8 94 20 3f
       0.63710064 0.7797848 0.93668497 0.6272721
000110 15 46 8b 3f d3 d2 3f 3f 1f c1 18 3f 92 f7 3b 3f
       1.0880762 0.7493107 0.5966968 0.7342464
000120 b5 4b 5a 3f 4a 74 1a 3f 5a db 24 3f 8e df 14 3f
       0.8527177 0.60333693 0.64397204 0.5815362
000130 38 8f e7 3e ec 15 3b 3f de 35 39 3f 30 d1 41 3f
       0.45226455 0.73080325 0.7234782 0.7570982
000140 ce 93 3e 3f e7 53 68 3f 7a b2 27 3f 54 cf 85 3f
       0.7444428 0.90753025 0.6550671 1.0453897
000150 77 a1 3a 3f f6 79 6d 3f 5a 1b 49 3f 6a 57 4d 3f
       0.72902626 0.9276422 0.7855736 0.8021151
000160 b6 cc 3f 3f 42 1c 3e 3f 9f 35 24 3f aa e6 4e 3f
       0.7492174 0.7426187 0.6414432 0.80820715
000170 ff 7c 28 3f 20 f8 36 3f f9 1b 61 3f d7 e1 72 3f
       0.6581573 0.7147236 0.8793331 0.94875854
000180 ff 8c 39 3f c2 06 37 3f 69 56 37 3f 37 91 25 3f
       0.7248077 0.71494687 0.71616226 0.64674705
000190 a2 7c e2 3e 3a a9 5e 3f 52 87 58 3f 05 ba 6f 3f
       0.44235712 0.8697697 0.8458148 0.9364322
0001a0 28 ae 57 3f d5 7b 62 3f 71 0a 86 3f 8f 01 42 3f
       0.84250116 0.884702 1.0471936 0.7578363
0001b0 0f 06 8e 3f f8 1a 6a 3f 5d e1 d4 3e f6 d3 3f 3f
       1.1095599 0.914474 0.4157819 0.749328
0001c0 99 7c 47 3f 77 0e 1a 3f 9e 47 d3 3e 88 8f 2b 3f
       0.77924496 0.6017832 0.41265577 0.67015886
0001d0 31 dd 35 3f 50 e8 29 3f d6 de 68 3f 24 8a 8b 3f
       0.71040636 0.66370106 0.9096502 1.0901532
0001e0 48 e7 8e 3f 67 13 23 3f 42 38 25 3f 6f 9d 5b 3f
       1.1164331 0.6370148 0.6453897 0.857871
0001f0 65 e3 04 3f 98 78 94 3f cd 38 26 3f f6 72 02 3f
       0.51909477 1.1599302 0.6493042 0.50956666

arith.constant11 f4 [64]
000000 e5 f2 1b bf 6c 16 f8 be c7 32 31 bf 96 24 23 bf
       -0.609175 -0.48454607 -0.69218105 -0.637277
000010 ca 42 c3 be a4 cf 20 bf b7 23 ea be c0 83 17 bf
       -0.38136894 -0.62816834 -0.45730373 -0.5918541
000020 5b 1a 06 bf 90 c9 7e bf 50 15 6f bf 35 42 ff be
       -0.52383965 -0.9952631 -0.93391895 -0.498552
000030 2c 72 d4 be b8 c0 0c bf f4 83 2c bf 74 f4 b2 be
       -0.41493356 -0.54981565 -0.67388844 -0.34952128
000040 60 57 00 bf 97 3b 14 bf 0d c4 69 bf 5b 80 0a bf
       -0.50133324 -0.57903427 -0.91314775 -0.54102105
000050 cd 34 db be a1 88 41 bf 2e ba d8 be e3 2f 41 bf
       -0.4281372 -0.75599104 -0.42329544 -0.75463694
000060 e5 7d 32 bf ec 5b fe be 03 62 f3 be 7a 56 13 bf
       -0.6972335 -0.49679506 -0.47535715 -0.5755383
000070 a7 3c 07 bf 7a f7 5c bf d7 41 39 bf 42 21 44 bf
       -0.52826923 -0.8631512 -0.7236609 -0.7661325
000080 be a0 e5 be 86 24 0c bf 48 8d 6c bf 66 67 1b bf
       -0.448492 -0.5474323 -0.9240308 -0.6070465
000090 0e e6 e3 be 8b d1 48 bf 24 5d 27 bf 24 43 52 bf
       -0.44511455 -0.7844474 -0.65376496 -0.821337
0000a0 4b ab 60 bf a1 c7 18 bf f5 7b ec be 35 66 5f bf
       -0.8776137 -0.5967961 -0.46188322 -0.8726533
0000b0 fb 82 41 bf 33 a8 69 bf e1 b1 f5 be c1 4a 6f bf
       -0.75590485 -0.91272277 -0.47987273 -0.9347344
0000c0 52 3d 10 bf 6c 54 44 bf 02 85 29 bf b3 52 16 bf
       -0.5634357 -0.7669132 -0.6621858 -0.5871994
0000d0 37 74 05 bf 26 ee 45 bf 8a 1b 07 bf 6f fa 22 bf
       -0.52130455 -0.7731651 -0.52776396 -0.6366338
0000e0 75 14 04 bf b2 32 39 bf 36 35 09 bf e4 d6 0d bf
       -0.51593715 -0.7234298 -0.5359682 -0.5540602
0000f0 c8 b9 57 bf 1f 89 17 bf ea fb 30 bf 7b d5 15 bf
       -0.84267855 -0.59193605 -0.6913439 -0.5852887
